H5 to TRT/model3.onnx (onnx, 144511 bytes, 26 tensors)

model/stance_swing_output/Tensordot/Cast:0 f2 [20, 1]
000000 00 38 de b4 35 06 e3 b7 14 b6 90 35 17 b9 a9 b5
       0.5 -0.3042 9.47e-05 -0.493 -0.38 0.3477 -0.636 -0.3538
000010 72 38 69 35 a2 b0 ba ab d9 b1 c0 38 26 b9 e4 39
       0.5557 0.3381 -0.1448 -0.06036 -0.1827 0.5938 -0.6436 0.7363
000020 01 b8 d4 34 d4 37 b0 38
       -0.5005 0.3018 0.4893 0.586

model/gait_phase_output/Tensordot/Cast:0 f2 [20, 1]
000000 95 b7 92 28 6c b1 ea 2e 7e a4 42 34 b6 ae 95 b2
       -0.4739 0.0357 -0.1694 0.10803 -0.01755 0.266 -0.10486 -0.2057
000010 26 36 3c 36 f6 b3 73 30 3e b5 85 37 44 b0 ea b4
       0.3843 0.3896 -0.2488 0.139 -0.3276 0.47 -0.1333 -0.3071
000020 b2 ab c4 30 3d b3 cf 36
       -0.06012 0.1489 -0.2262 0.4255

model/dense_4/Tensordot/Cast:0 f2 [20, 20]
000000 67 2c a5 b3 54 b5 05 2c 83 2d 8f aa d6 18 5c b4
       0.0688 -0.2389 -0.333 0.0628 0.0861 -0.05124 0.002361 -0.2725
000010 81 35 50 34 dd b4 c4 34 87 b2 59 31 cf b4 98 37
       0.344 0.2695 -0.304 0.2979 -0.204 0.1671 -0.3005 0.4746
000020 96 b3 68 2a 67 30 60 36 4f a6 9e 32 ad b5 ee 28
       -0.237 0.05005 0.1376 0.3984 -0.02464 0.2068 -0.3547 0.0385
000030 df 37 23 b0 e0 35 e8 37 28 ae 33 31 dd b0 25 2c
       0.492 -0.1293 0.3672 0.4941 -0.0962 0.1625 -0.152 0.06476
000040 45 38 8f 30 b0 b6 55 35 d7 30 b0 b1 f2 b1 f2 2b
       0.5337 0.1425 -0.418 0.3333 0.1512 -0.1777 -0.1858 0.06207
000050 98 32 95 34 8d ae 2b b4 02 b8 85 31 c1 ae 49 b4
       0.206 0.2864 -0.10236 -0.2605 -0.501 0.1725 -0.1055 -0.2678
000060 fa ac 56 37 d0 b3 b8 b7 b5 a5 96 30 42 b7 09 38
       -0.07776 0.4585 -0.2441 -0.4824 -0.0223 0.1433 -0.4536 0.5044
000070 f1 b6 5e 32 51 b4 fd 34 60 35 9e b3 b9 30 d7 b4
       -0.4338 0.199 -0.2698 0.3118 0.336 -0.238 0.1476 -0.3025
000080 f1 28 04 38 eb b5 17 ab 8c 2f 32 38 f5 30 6a a9
       0.0386 0.502 -0.3699 -0.0554 0.1179 0.5244 0.1549 -0.0423
000090 55 30 a8 38 90 b1 a9 38 73 b3 3c 35 02 32 99 34
       0.1354 0.582 -0.1738 0.5825 -0.2328 0.3271 0.1877 0.2874
0000a0 e3 36 f7 a5 84 35 01 30 9a ad 75 ab f1 b2 15 b4
       0.4304 -0.0233 0.3447 0.1251 -0.0875 -0.05826 -0.2169 -0.2551
0000b0 e3 ae 1b b0 af b6 4b 26 d9 b4 9f 34 f2 b2 00 36
       -0.1076 -0.1283 -0.4177 0.02458 -0.303 0.2888 -0.217 0.375
0000c0 16 34 85 38 29 b1 94 35 5c 34 8e b2 2e 30 74 2e
       0.2554 0.565 -0.1613 0.3486 0.2725 -0.2048 0.1306 0.1008
0000d0 0b b4 1c 34 78 b4 74 b2 49 33 3b ab f1 ac 16 a8
       -0.2527 0.2568 -0.2793 -0.2017 0.2277 -0.0565 -0.0772 -0.03192
0000e0 57 30 8a 38 6e b4 ee 34 d0 b2 15 38 89 b4 5d 36
       0.1356 0.5674 -0.2769 0.308 -0.2129 0.5103 -0.2834 0.3977
0000f0 89 ae 94 b2 3b b6 17 b4 c6 27 3e 35 e4 2e ce b0
       -0.1021 -0.2056 -0.3894 -0.2556 0.03036 0.3276 0.10767 -0.1501
000100 52 37 f0 31 72 b0 60 a1 3a ad 6a 2e 16 34 6c ad
       0.4575 0.1855 -0.1389 -0.0105 -0.08167 0.1002 0.2554 -0.0847
000110 d2 a8 fa ad 19 33 97 2a e7 34 11 32 14 29 6d 31
       -0.03766 -0.0934 0.2218 0.05148 0.3064 0.1896 0.03967 0.1696
000120 53 34 28 2d 7a ac 09 b5 6a b0 39 b5 d2 35 c4 9c
       0.2703 0.08057 -0.06995 -0.3147 -0.138 -0.3264 0.3638 -0.004654
000130 55 36 9d b5 e6 b2 74 2b d3 28 b7 b2 3b a6 00 b6
       0.3958 -0.3508 -0.2156 0.05823 0.0377 -0.2098 -0.02434 -0.375
000140 9f 36 85 33 33 b1 d8 b0 8f 9a fc a8 51 32 fe a0
       0.4138 0.235 -0.1625 -0.1514 -0.003202 -0.03894 0.1974 -0.00975
000150 c7 b4 e1 b1 48 a5 f5 36 7a 30 f0 b4 bf 30 d5 b4
       -0.2986 -0.1837 -0.02063 0.4348 0.1399 -0.3086 0.1483 -0.302
000160 ea 33 e5 31 0b 2a 71 2b c2 b5 5e b5 b8 1a 94 2d
       0.2473 0.1842 0.0472 0.05814 -0.3599 -0.3354 0.00328 0.08716
000170 a8 30 7d 34 7a b1 e8 b1 8e 35 3a b4 79 b3 83 35
       0.1455 0.2805 -0.1711 -0.1846 0.3472 -0.2642 -0.2335 0.3445
000180 6f b0 37 2f 91 2f 9b b0 a0 31 a5 b3 c0 b3 c6 32
       -0.1385 0.11273 0.1182 -0.1439 0.1758 -0.2389 -0.2422 0.2117
000190 55 b5 30 b4 d3 a8 72 37 b1 33 ea 36 29 a3 4d 30
       -0.3333 -0.2617 -0.0377 0.4653 0.2404 0.4321 -0.013985 0.1344
0001a0 61 37 d7 2c a0 29 87 22 55 b5 b3 29 4d ae 5f a9
       0.4612 0.0756 0.04395 0.01275 -0.3333 0.04453 -0.09845 -0.04196
0001b0 14 af 8d 34 d5 1f 44 b0 fd ac de b5 be b5 4e 28
       -0.1106 0.2844 0.00765 -0.1333 -0.07794 -0.3667 -0.359 0.03363
0001c0 2a 2b 98 33 5b 36 82 32 30 35 9c 33 f0 2c 16 b7
       0.05597 0.2373 0.3972 0.2034 0.3242 0.2378 0.07715 -0.4429
0001d0 45 a8 b0 b1 48 b5 48 27 fe 2b be 2d 4e b5 6f 36
       -0.03336 -0.1777 -0.33 0.02844 0.06244 0.0897 -0.3315 0.402
0001e0 8a 34 07 b2 06 33 5f 37 1c 2d f9 af 0e ab e6 31
       0.2837 -0.1884 0.2195 0.4607 0.07983 -0.1246 -0.0551 0.1843
0001f0 c0 b4 c8 ad 9a 24 2e 2c 96 30 45 29 ac 36 86 22
       -0.2969 -0.09033 0.01797 0.0653 0.1433 0.04117 0.417 0.01274

model/dense_4/BiasAdd/Cast:0 f2 [20]
000000 4c 2d cc a8 85 a0 7c 32 9f 2a 18 28 bf 29 1e 2a
       0.08276 -0.03748 -0.00883 0.2026 0.05173 0.03198 0.0449 0.0478
000010 6b 2c 1a a8 93 2d 63 86 7b 2d 80 2d e2 2e e2 30
       0.06903 -0.03204 0.0871 -9.745e-05 0.08563 0.08594 0.10754 0.1526
000020 c7 2a 51 30 7d a9 0d 2c
       0.05295 0.1349 -0.04288 0.0633

model/dense_3/Tensordot/Cast:0 f2 [30, 20]
000000 bd 9c 66 b1 1d b6 4d af 03 36 5d 35 e4 2d 97 b1
       -0.004627 -0.1687 -0.382 -0.1141 0.3757 0.3352 0.09204 -0.1747
000010 73 36 b9 32 5b b6 15 2f dc 2a 4a b5 37 b2 bd 33
       0.403 0.2101 -0.3972 0.11066 0.0536 -0.3306 -0.1942 0.2418
000020 52 b5 ce 35 0b 34 2b 33 73 2c 06 32 ce 35 3d 31
       -0.3325 0.3628 0.2527 0.224 0.0695 0.1882 0.3628 0.1637
000030 b8 1a ba 34 31 a4 34 2b e3 ac ee 31 1f b3 7d 36
       0.00328 0.2954 -0.01637 0.05627 -0.07635 0.1853 -0.2225 0.4055
000040 4b af c9 b2 a5 b6 b3 36 d3 2c 32 24 11 b1 a7 af
       -0.11395 -0.212 -0.4153 0.4187 0.0754 0.01639 -0.1583 -0.11957
000050 54 b0 98 b0 d9 b2 a6 30 2f 31 f1 b0 dd 33 32 b4
       -0.1353 -0.1436 -0.214 0.1453 0.162 -0.1544 0.2457 -0.2622
000060 b6 b2 1a ac ff b2 78 a5 24 31 f0 2b 03 b4 42 33
       -0.2097 -0.0641 -0.2186 -0.02136 0.1606 0.062 -0.2507 0.2268
000070 d4 31 9e 31 3e 31 a4 2b c5 27 73 34 18 34 95 34
       0.1821 0.1755 0.1638 0.0597 0.03035 0.278 0.2559 0.2864
000080 8c b2 a6 34 7b 32 3d a6 e2 2e 99 a7 46 32 1a b0
       -0.2046 0.2905 0.2025 -0.02437 0.10754 -0.02968 0.196 -0.1282
000090 49 af 43 a6 5e a5 b1 34 05 32 ff 30 d0 2e ac 32
       -0.11383 -0.02446 -0.02097 0.2932 0.1881 0.1561 0.10645 0.2085
0000a0 f9 b0 04 a9 04 2c ca b2 96 2e c1 35 69 b4 88 b0
       -0.1554 -0.03918 0.06274 -0.2122 0.1029 0.3596 -0.2756 -0.1416
0000b0 88 34 31 b1 25 28 27 b0 d2 30 a3 26 08 b2 6f a6
       0.2832 -0.1622 0.03238 -0.1298 0.1506 0.02592 -0.1885 -0.02513
0000c0 01 b5 30 31 06 31 48 2c 04 34 1a 2f 5d 2c 84 b3
       -0.3127 0.1621 0.157 0.0669 0.251 0.11096 0.0682 -0.2349
0000d0 ea b2 39 31 2e aa a3 ae ad ac ba 2d 23 a6 b6 34
       -0.2161 0.1632 -0.04828 -0.1037 -0.07306 0.0895 -0.02397 0.2944
0000e0 54 31 17 28 45 32 2f 35 45 35 09 b3 d1 34 da 35
       0.1665 0.03195 0.1959 0.324 0.3293 -0.2198 0.301 0.3657
0000f0 ae a8 1c ae a2 2f 89 b4 29 30 75 ae 74 35 48 33
       -0.03656 -0.09546 0.11926 -0.2834 0.13 -0.1009 0.3408 0.2275
000100 61 34 c7 b0 0a 20 2a b0 5f b2 cb aa 07 9e 66 35
       0.2737 -0.1493 0.00789 -0.1301 -0.1991 -0.05307 -0.005886 0.3374
000110 50 33 34 36 8a ac ea 30 eb aa c2 aa c9 ac e4 2c
       0.2285 0.3877 -0.0709 0.1536 -0.05405 -0.0528 -0.07477 0.0764
000120 7a 2f ed b1 8a 22 61 ad f5 aa 10 b2 b0 33 0d 33
       0.1168 -0.1852 0.01277 -0.08405 -0.05435 -0.1895 0.2402 0.2203
000130 d5 31 95 36 23 b1 e2 35 08 30 f0 b3 b3 b5 5f b2
       0.1823 0.4114 -0.1605 0.3677 0.126 -0.248 -0.3562 -0.1991
000140 84 ac 10 35 a5 aa 65 34 6c b5 75 2e b5 35 b6 2b
       -0.07056 0.3164 -0.0519 0.2747 -0.3389 0.1009 0.3567 0.06024
000150 60 a4 0c 24 78 af 89 33 18 a8 95 af 22 34 47 22
       -0.01709 0.01581 -0.1167 0.2355 -0.03198 -0.11847 0.2583 0.01226
000160 58 b2 83 2f 57 b0 ab 29 4b 35 38 b5 e6 b0 3e 28
       -0.1982 0.1174 -0.1356 0.04428 0.3308 -0.3262 -0.1531 0.03314
000170 d0 b2 84 36 15 19 5e 2c 16 34 6e 35 f0 b1 3d 20
       -0.2129 0.4072 0.002481 0.06824 0.2554 0.3394 -0.1855 0.00828
000180 2e 34 f3 2a ca 2f 1d 32 02 b6 b4 b3 f0 34 00 b3
       0.2612 0.0543 0.1217 0.191 -0.3755 -0.2407 0.3086 -0.2188
000190 15 2a f9 b2 55 a9 fc b0 9e a6 1c b5 dc 2b 8a 27
       0.04752 -0.2179 -0.04166 -0.1558 -0.02585 -0.3193 0.0614 0.02945
0001a0 51 31 c8 b2 03 b4 92 2c 02 34 06 34 a1 30 c3 34
       0.1661 -0.2119 -0.2507 0.0714 0.2505 0.2515 0.1447 0.2976
0001b0 05 b4 17 a5 13 af f6 2e 4e b6 30 24 1f 35 a0 36
       -0.2512 -0.01988 -0.11053 0.10876 -0.394 0.01636 0.32 0.414
0001c0 21 34 63 ae 92 36 f4 a9 98 b5 4c 34 31 36 ee 36
       0.258 -0.0998 0.4106 -0.0465 -0.3496 0.2686 0.387 0.433
0001d0 0b b6 3e 36 df 35 df 35 81 a2 76 b2 7f b2 8b b2
       -0.3777 0.3901 0.367 0.367 -0.0127 -0.2019 -0.203 -0.2045
0001e0 b7 29 39 2c 3b ae ee b6 b5 ad 37 b4 f9 af a3 2f
       0.04465 0.066 -0.09735 -0.433 -0.0892 -0.2634 -0.1246 0.1193
0001f0 68 31 1c 2d 3e b6 13 a3 6b 2e ac ad 5c 9d 73 34
       0.169 0.07983 -0.3901 -0.01382 0.1003 -0.0886 -0.005234 0.278

model/dense_3/BiasAdd/Cast:0 f2 [20]
000000 36 a4 a6 29 d6 2d f7 2d 3e 2e 22 30 8a 2d 2a ab
       -0.01645 0.04413 0.0912 0.0932 0.09753 0.1292 0.08655 -0.05597
000010 e5 9c 84 2b 75 27 35 2e 64 2b 26 1f 0c a9 bf 2e
       -0.00478 0.05872 0.02913 0.097 0.05774 0.00698 -0.03943 0.1054
000020 40 1d a0 2b ec 2d f8 30
       0.005127 0.05957 0.0925 0.1553

model/dense_2/Tensordot/Cast:0 f2 [20, 20]
000000 53 a8 d7 28 19 34 bb 34 2c b0 42 b0 25 18 0a 31
       -0.03378 0.0378 0.256 0.2957 -0.1304 -0.133 0.002024 0.1575
000010 97 ae 7b b4 ed b5 81 a4 29 28 b6 34 06 a1 29 b1
       -0.10297 -0.28 -0.3704 -0.0176 0.0325 0.2944 -0.00981 -0.1613
000020 6c 32 e4 b1 84 b4 f0 aa 5e b5 b2 34 0c b6 61 ad
       0.2007 -0.1841 -0.2822 -0.0542 -0.3354 0.2935 -0.378 -0.08405
000030 89 b5 ee 30 50 2c b2 34 8a b3 76 34 f2 ab d0 32
       -0.346 0.154 0.0674 0.2935 -0.2356 0.2788 -0.06207 0.2129
000040 b5 30 36 b4 e5 b2 f7 32 c4 b3 ca 32 79 b4 7c b5
       0.1471 -0.2632 -0.2155 0.2177 -0.2427 0.2122 -0.2795 -0.3428
000050 65 30 1b ae 25 20 db 31 44 b1 b5 b0 28 35 c8 b2
       0.1373 -0.0954 0.008095 0.183 -0.1646 -0.1471 0.3223 -0.2119
000060 f5 b1 e5 a6 db 28 c1 a8 65 34 1f 34 fe ab 93 a8
       -0.1862 -0.02693 0.03793 -0.03714 0.2747 0.2576 -0.06244 -0.03574
000070 76 34 d8 aa 0d 31 e0 29 b5 34 c1 b4 01 b4 88 b4
       0.2788 -0.05347 0.1578 0.0459 0.2942 -0.297 -0.2502 -0.2832
000080 99 ad 5d b1 c8 b5 d6 ae 91 33 e3 32 b1 a8 62 35
       -0.08746 -0.1676 -0.3613 -0.1068 0.2365 0.2152 -0.03665 0.3364
000090 1e b4 9e b5 d8 29 3d 34 b2 31 30 ab 39 b4 1c 2e
       -0.2573 -0.351 0.04565 0.265 0.178 -0.05615 -0.264 0.09546
0000a0 a2 b1 39 b4 50 af 1f b2 8a a8 32 b4 5f b5 4c b1
       -0.176 -0.264 -0.11426 -0.1913 -0.03546 -0.2622 -0.3357 -0.1655
0000b0 43 ab e5 b0 c9 34 28 2e c4 2f 35 34 3e a7 de 31
       -0.05673 -0.153 0.299 0.0962 0.12134 0.263 -0.02829 0.1833
0000c0 75 b4 e9 32 9c b4 1b 35 f6 34 ba 34 36 a6 ac 34
       -0.2786 0.216 -0.288 0.319 0.31 0.2954 -0.02426 0.292
0000d0 bc 34 32 b0 dd 34 a9 33 a1 ac 53 b5 5c 2d c1 35
       0.296 -0.1311 0.304 0.2394 -0.0723 -0.3328 0.08374 0.3596
0000e0 21 b5 8c 31 a1 24 70 b4 e6 b3 45 ae 3b af 9d b4
       -0.3206 0.1733 0.01808 -0.2773 -0.2468 -0.09796 -0.113 -0.2883
0000f0 f3 b3 8c 36 5a 34 eb 33 cd 32 2f 35 9f a9 35 b1
       -0.2484 0.4092 0.272 0.2474 0.2125 0.324 -0.0439 -0.1627
000100 08 b2 cb ab 27 29 5e b2 eb a3 e5 2e 3a b3 8f 35
       -0.1885 -0.06088 0.04025 -0.199 -0.015465 0.1077 -0.2258 0.3474
000110 36 b2 12 36 9d b3 92 b2 90 35 be 35 96 a5 5d b5
       -0.1941 0.3794 -0.2379 -0.2053 0.3477 0.359 -0.02182 -0.3352
000120 e7 b3 e2 35 2a 34 42 b4 7f a9 37 2d 5d 30 0e ab
       -0.247 0.3677 0.2603 -0.266 -0.04294 0.0815 0.1364 -0.0551
000130 a2 34 ef ae 4a 2d 60 2b 40 30 f9 af d3 b5 48 31
       0.2896 -0.10834 0.08264 0.05762 0.1328 -0.1246 -0.364 0.165
000140 46 b1 66 b0 47 b4 80 28 92 b5 29 32 25 b1 63 9c
       -0.1648 -0.1375 -0.2673 0.03516 -0.3481 0.1925 -0.1608 -0.004284
000150 45 34 be b0 c4 b0 03 2c e8 31 3f 35 e9 b3 54 35
       0.2668 -0.1482 -0.1489 0.0627 0.1846 0.328 -0.2472 0.333
000160 99 36 1a b2 05 30 23 b0 bf af d6 b5 ea af 0f 36
       0.4124 -0.1907 0.1256 -0.1293 -0.12103 -0.3647 -0.12366 0.3787
000170 73 b5 8e b3 cd 33 16 32 b5 30 f1 2a 68 b1 06 32
       -0.3406 -0.2361 0.2438 0.1902 0.1471 0.05423 -0.169 0.1882
000180 31 0c dd 30 f6 b1 b8 30 98 a1 a8 35 4f a8 7b b1
       0.0002558 0.152 -0.1863 0.1475 -0.010925 0.3535 -0.03366 -0.1713
000190 ef 34 f2 34 57 b0 e5 b5 07 2f c7 a6 bb 35 71 b0
       0.3083 0.309 -0.1356 -0.3684 0.1098 -0.02647 0.3582 -0.1388
0001a0 36 30 7c aa 76 9c b8 aa a5 ae 13 9c 03 b1 54 31
       0.1316 -0.05066 -0.004356 -0.0525 -0.1038 -0.00398 -0.1566 0.1665
0001b0 33 b1 24 2c 27 24 43 ad 58 35 0b 33 04 b5 42 b1
       -0.1625 0.0647 0.01622 -0.0822 0.334 0.2201 -0.3135 -0.1643
0001c0 1a b4 83 2e c5 b4 ab 32 1a a3 fb ad 36 32 3c b5
       -0.2563 0.10175 -0.298 0.2084 -0.01387 -0.09344 0.1941 -0.3271
0001d0 45 b6 8b ac d2 34 f0 2e 71 b4 0d 35 ca 34 bc 35
       -0.3918 -0.071 0.3013 0.1084 -0.2776 0.3157 0.2993 0.3584
0001e0 b2 b3 e0 af 63 34 0f b5 41 b4 41 b3 21 34 65 31
       -0.2405 -0.12305 0.2742 -0.3162 -0.2659 -0.2267 0.258 0.1686
0001f0 9c b1 b7 b0 77 29 93 ae 73 b1 23 ad 1c 2e 0d ac
       -0.1753 -0.1473 0.0427 -0.1027 -0.1703 -0.08026 0.09546 -0.0633

model/dense_2/BiasAdd/Cast:0 f2 [20]
000000 ea a5 e4 26 a6 aa e8 2b d2 ab 24 2c 5d a9 28 a4
       -0.0231 0.02692 -0.05194 0.06177 -0.0611 0.0647 -0.0419 -0.01624
000010 55 29 3b a0 00 a7 f3 28 f5 11 4f 2a 2d a3 61 a9
       0.04166 -0.00826 -0.02734 0.03867 0.000727 0.0493 -0.014015 -0.04202
000020 80 a4 59 29 c0 ab 3b 29
       -0.01758 0.04178 -0.06055 0.04086

model/dense_1/Tensordot/Cast:0 f2 [20, 20]
000000 48 ab 61 2f 83 b3 5a 2f d8 b0 41 ae a6 34 75 b4
       -0.0569 0.1153 -0.2347 0.11487 -0.1514 -0.0977 0.2905 -0.2786
000010 ac b4 24 35 30 30 e9 21 fc a8 16 b5 17 b2 e0 26
       -0.292 0.3213 0.1309 0.01154 -0.03894 -0.3179 -0.1903 0.02686
000020 1b b3 95 2f 2f a6 5d ad d8 ac 55 b3 71 33 9a b2
       -0.222 0.11847 -0.02415 -0.0838 -0.0757 -0.2291 0.2325 -0.2063
000030 00 32 bf 35 dc 33 19 ac b1 a5 80 b3 34 32 8f 29
       0.1875 0.3591 0.2456 -0.064 -0.02223 -0.2344 0.1938 0.04343
000040 7d 34 50 a9 dd b4 9c 32 d1 35 3c b5 f7 32 ba b5
       0.2805 -0.0415 -0.304 0.2065 0.3635 -0.3271 0.2177 -0.358
000050 99 b0 27 34 f3 b4 8b 2b a6 ac bc b4 a3 32 55 31
       -0.1437 0.2595 -0.3093 0.05893 -0.07263 -0.296 0.2074 0.1666
000060 b2 b3 90 a0 d7 a8 84 24 c9 35 82 34 f4 31 bf b0
       -0.2405 -0.00891 -0.0378 0.01764 0.3616 0.2817 0.186 -0.1483
000070 ea 35 90 31 54 35 82 b5 8d b4 fc 35 7c 34 40 34
       0.3696 0.1738 0.333 -0.3442 -0.2844 0.374 0.2803 0.2656
000080 09 30 cc b5 c1 b5 67 34 ee 2f 1a 2d ea b3 0c b7
       0.1261 -0.3623 -0.3596 0.2751 0.1239 0.0797 -0.2473 -0.4404
000090 a0 2c 8e 35 b6 b5 bd b3 d6 a5 2e b5 59 33 ee 2c
       0.07227 0.3472 -0.357 -0.2418 -0.0228 -0.3237 0.2296 0.077
0000a0 6f b6 5a b5 50 34 1b b4 09 36 69 b6 f5 ab b8 35
       -0.402 -0.3345 0.2695 -0.2566 0.3772 -0.4006 -0.06216 0.3574
0000b0 2b 30 f2 b4 01 a0 8e 34 3f 35 b2 35 26 25 55 b5
       0.1302 -0.309 -0.00782 0.2847 0.328 0.356 0.02011 -0.3333
0000c0 90 2b c0 b0 38 27 6c 35 9f 34 ab ab 1e 36 0e 34
       0.05908 -0.1484 0.0282 0.3389 0.2888 -0.0599 0.3823 0.2534
0000d0 e7 a9 f9 31 75 b3 fc b5 98 b3 99 b5 aa 29 fd a6
       -0.0461 0.1866 -0.233 -0.374 -0.2373 -0.3499 0.04425 -0.0273
0000e0 a0 30 32 b3 a3 ad d6 af cb 33 1e 2e 02 29 53 af
       0.1445 -0.2249 -0.0881 -0.12244 0.2435 0.0956 0.03912 -0.11444
0000f0 78 ae 43 9d 83 ac 1d b0 77 a0 30 b2 96 b5 c3 30
       -0.1011 -0.00514 -0.0705 -0.1285 -0.00872 -0.1934 -0.349 0.1488
000100 8d ad c4 b5 41 b6 7d b5 9a b0 3c 35 85 ac 7e 32
       -0.08673 -0.3604 -0.3909 -0.343 -0.1438 0.3271 -0.0706 0.2029
000110 36 b1 90 ad 5d 33 30 b4 0b 9a c1 b3 26 2b 8a af
       -0.1628 -0.0869 0.2301 -0.2617 -0.00295 -0.2423 0.05585 -0.1178
000120 ad b3 61 30 e5 b2 52 b4 81 34 b7 b2 29 b6 2f b2
       -0.2399 0.1368 -0.2155 -0.27 0.2815 -0.2098 -0.385 -0.1932
000130 d8 35 14 b1 6f b2 81 30 bd 30 27 2c 85 29 26 ad
       0.3652 -0.1587 -0.201 0.1407 0.1481 0.0649 0.04312 -0.08044
000140 ec b3 7b b2 3e 33 3f 31 f2 34 2c a9 8e b0 22 a9
       -0.2476 -0.2025 0.2263 0.164 0.309 -0.0404 -0.1423 -0.0401
000150 fc ad 68 b4 4c 33 5e 34 40 b3 08 b6 34 b2 f3 af
       -0.0935 -0.2754 0.228 0.273 -0.2266 -0.377 -0.1938 -0.1242
000160 7a b1 73 b3 80 ad 65 b0 bf b5 30 b5 23 34 84 34
       -0.1711 -0.2328 -0.08594 -0.1373 -0.3591 -0.3242 0.2585 0.2822
000170 4c b0 13 b6 a7 b2 c5 30 6c b5 82 b4 7f 32 fc b1
       -0.1343 -0.3796 -0.2079 0.149 -0.3389 -0.2817 0.203 -0.187
000180 4d 1e b9 30 3a 31 0d 33 ca 33 92 31 c7 2d ee 34
       0.006153 0.1476 0.1633 0.2203 0.2434 0.1741 0.0903 0.308
000190 5d 35 81 35 d8 b4 15 a4 ca b3 26 31 60 2d 6b b6
       0.3352 0.344 -0.3027 -0.01595 -0.2434 0.1609 0.084 -0.4011
0001a0 61 b0 2c b4 10 33 57 b6 7d b2 90 34 16 ac f0 b5
       -0.1368 -0.2607 0.2207 -0.3962 -0.2028 0.2852 -0.06384 -0.371
0001b0 bb 30 9f b0 22 b2 29 ae f7 b0 fc b4 5f 26 fe b2
       0.1478 -0.1444 -0.1917 -0.09625 -0.1552 -0.3115 0.02489 -0.2185
0001c0 f1 35 7e b4 a4 b0 3d b1 a5 9d 01 34 b8 b3 48 a7
       0.3713 -0.2808 -0.145 -0.1637 -0.005512 0.2502 -0.2412 -0.02844
0001d0 98 31 73 b4 5b b3 3c b4 be b0 e4 a4 27 b3 00 23
       0.1748 -0.278 -0.2299 -0.2646 -0.1482 -0.0191 -0.2235 0.01367
0001e0 75 b2 1c 35 e5 b1 0e 22 ef b4 35 b2 be 33 a6 b1
       -0.2018 0.3193 -0.1842 0.011826 -0.3083 -0.194 0.242 -0.1765
0001f0 ee b5 25 b2 45 b6 97 2d 7a b5 18 35 8c 2e 27 35
       -0.3706 -0.192 -0.3918 0.08734 -0.3423 0.3184 0.1023 0.322

model/dense_1/BiasAdd/Cast:0 f2 [20]
000000 1b 28 b0 a6 8d a0 92 ab 43 28 80 a8 38 ab 08 a6
       0.03207 -0.02612 -0.00889 -0.05914 0.0333 -0.03516 -0.0564 -0.02356
000010 15 a7 18 1a 78 a6 e2 2a 53 aa 35 25 bd a5 6e 28
       -0.02766 0.002975 -0.02527 0.05377 -0.0494 0.02034 -0.02242 0.0346
000020 b3 28 c2 1c 24 a1 fc 25
       0.0367 0.004646 -0.01004 0.02338

model/dense/Tensordot/Cast:0 f2 [30, 20]
000000 cc 31 b5 b5 39 2f 8f ad 6a af c5 34 0e 2c db a0
       0.1812 -0.3567 0.11285 -0.08685 -0.11584 0.298 0.06335 -0.00948
000010 0f b4 9f 2f 94 35 93 31 41 b3 29 b4 75 34 73 33
       -0.2537 0.1191 0.3486 0.1742 -0.2267 -0.26 0.2786 0.2328
000020 42 b4 61 34 33 35 94 32 d9 b3 a8 b3 2f 2c 75 32
       -0.266 0.2737 0.325 0.2056 -0.2452 -0.2393 0.06537 0.2018
000030 71 32 49 30 1c 19 a2 32 e5 34 0a 35 ae aa 33 34
       0.2013 0.1339 0.002495 0.2073 0.306 0.315 -0.0522 0.2625
000040 64 b4 79 35 af b4 6e ac 65 32 81 b4 0e 2f db b2
       -0.2744 0.342 -0.2927 -0.0692 0.1998 -0.2815 0.1102 -0.2142
000050 29 a4 5e ab fb 30 0e 32 4c 33 00 b2 ca 25 4a b5
       -0.01625 -0.05756 0.1556 0.1892 0.228 -0.1875 0.02261 -0.3306
000060 0a 32 92 30 de aa fc 30 44 af 14 b4 7c ac 0c b0
       0.1887 0.1428 -0.05365 0.1558 -0.1135 -0.255 -0.07007 -0.1265
000070 44 30 e4 33 bf 33 1a b2 e0 31 cd 9d 42 31 43 a0
       0.1333 0.2466 0.2421 -0.1907 0.1836 -0.005665 0.1643 -0.00832
000080 5e 34 e3 b1 87 ac a0 31 b2 b2 af ae 6c 33 30 a8
       0.273 -0.184 -0.07074 0.1758 -0.2092 -0.10443 0.2319 -0.0327
000090 80 2f 49 b2 cd b1 89 ae 81 ad 46 a5 a7 b4 52 35
       0.1172 -0.1964 -0.1813 -0.1021 -0.086 -0.0206 -0.2908 0.3325
0000a0 20 31 37 ad cc b1 51 35 c7 b2 a6 33 d1 b2 56 31
       0.1602 -0.0815 -0.1812 0.3323 -0.2118 0.239 -0.213 0.1667
0000b0 64 31 72 2b 90 b1 78 34 15 35 3c b5 81 b4 07 30
       0.1685 0.05817 -0.1738 0.2793 0.3176 -0.3271 -0.2815 0.1259
0000c0 ac af 79 2f 5a 32 39 b4 d7 b3 7a b4 4e 34 c9 ae
       -0.1199 0.11676 0.1985 -0.264 -0.245 -0.2798 0.269 -0.106
0000d0 47 a8 2a 35 03 ae a7 32 a7 b0 91 b4 64 b4 62 32
       -0.03342 0.3228 -0.09393 0.2079 -0.1454 -0.2854 -0.2744 0.1995
0000e0 6b 31 73 34 10 33 fc 2a e9 34 ff b1 4f b4 42 2c
       0.1693 0.278 0.2207 0.05457 0.307 -0.1874 -0.2693 0.0665
0000f0 5b b0 ce 2e 0e 28 d0 af c6 b4 03 ae 01 34 50 2d
       -0.1361 0.1063 0.03168 -0.1221 -0.2983 -0.09393 0.2502 0.083
000100 bb 2f 90 33 b1 31 fa 31 e6 34 41 30 98 b4 16 31
       0.1208 0.2363 0.1779 0.1868 0.3062 0.1329 -0.287 0.1589
000110 5e 31 f4 a7 b6 ad 25 b0 1f 2b ac b4 b7 af a7 ae
       0.1677 -0.03107 -0.08923 -0.1295 0.05563 -0.292 -0.12054 -0.10394
000120 32 b0 0f af 64 af 18 ac aa 35 bb 2d 43 33 5b 2b
       -0.1311 -0.1103 -0.1155 -0.06396 0.354 0.08954 0.2269 0.05746
000130 03 b3 94 af 86 32 19 b0 a9 31 78 b3 4b a4 5e 32
       -0.2191 -0.1184 0.2039 -0.128 0.1769 -0.2334 -0.01677 0.199
000140 54 34 1e b3 6b b4 9d b4 75 a8 c4 b4 c6 33 a0 b4
       0.2705 -0.2224 -0.2761 -0.2883 -0.03482 -0.2979 0.2429 -0.289
000150 01 b4 60 32 56 32 d9 34 79 ad 54 ae 68 22 db 31
       -0.2502 0.1992 0.198 0.303 -0.0855 -0.0989 0.01251 0.183
000160 f2 28 3f 32 24 a8 aa 13 b5 b3 3b ae 60 35 a5 ad
       0.03864 0.1952 -0.03235 0.0009356 -0.2408 -0.09735 0.336 -0.0882
000170 a7 35 38 b4 00 ac 34 b2 44 34 0e 26 1d b5 63 ad
       0.3533 -0.2637 -0.0625 -0.1938 0.2666 0.02365 -0.3196 -0.08417
000180 c0 b2 00 b5 f1 34 e0 32 84 b4 f8 30 87 af 7a 2f
       -0.2109 -0.3125 0.3088 0.2148 -0.2822 0.1553 -0.1176 0.1168
000190 29 35 5d a6 34 b4 ad 31 b9 34 b0 23 6c 2f 3e 31
       0.3225 -0.02486 -0.2627 0.1774 0.2952 0.015015 0.11597 0.1638
0001a0 6c 32 1d 28 7b b4 6b b3 6f b4 97 33 03 35 6e b4
       0.2007 0.03214 -0.28 -0.2318 -0.277 0.2372 0.3132 -0.2769
0001b0 24 17 15 2d a5 ac e6 ab 7f 9d 37 ad 56 b3 16 b3
       0.001743 0.0794 -0.0726 -0.0617 -0.005367 -0.0815 -0.2292 -0.2214
0001c0 05 34 66 31 63 34 22 b5 fd 2d cd 2e 02 31 20 30
       0.2512 0.1687 0.2742 -0.3208 0.09357 0.10626 0.1565 0.1289
0001d0 2b 31 eb b1 99 2f 90 a9 28 34 d6 b0 cf 31 60 24
       0.1615 -0.1849 0.1187 -0.04346 0.2598 -0.1511 0.1815 0.01709
0001e0 21 2f 62 b4 bf b2 b5 34 15 31 5c b4 39 34 ac 30
       0.1114 -0.274 -0.2108 0.2942 0.1588 -0.2725 0.264 0.146
0001f0 70 33 35 34 b0 ae 32 28 7c 33 40 34 95 ae 7c a3
       0.2324 0.263 -0.1045 0.03278 0.2339 0.2656 -0.10284 -0.01462

model/dense/BiasAdd/Cast:0 f2 [20]
000000 a8 aa c0 ac c2 a7 2b 9a 55 1c 32 a8 6d 28 2e 9e
       -0.052 -0.0742 -0.0303 -0.003012 0.00423 -0.03278 0.03458 -0.006035
000010 cd a1 57 25 c0 a4 79 9f 75 90 4d 27 ac 26 e8 9d
       -0.01133 0.02086 -0.01855 -0.007298 -0.000544 0.02852 0.02606 -0.005768
000020 7f 25 70 8f f9 21 26 28
       0.02147 -0.000454 0.011665 0.0324

model/conv1d_3/Conv1D/ExpandDims_1:0 f2 [30, 30, 1, 23]
000000 a6 1c 0a aa 47 a7 53 a9 f3 a8 e6 a9 f2 9f 65 a1
       0.00454 -0.04718 -0.02843 -0.0416 -0.03867 -0.04608 -0.00776 -0.01054
000010 94 27 a6 a9 10 2b 4f a4 f2 25 df a2 a9 18 ca a5
       0.0296 -0.04413 0.05518 -0.01683 0.02322 -0.01342 0.002275 -0.02261
000020 68 27 59 1e d0 2c 64 2d 71 2d cb 31 ec 30 43 ad
       0.02893 0.0062 0.0752 0.0842 0.085 0.181 0.1538 -0.0822
000030 a5 99 95 a8 40 9d 31 a2 d2 a8 53 25 1d aa 6d 25
       -0.002756 -0.0358 -0.005127 -0.01209 -0.03766 0.0208 -0.04776 0.0212
000040 75 ac 8c aa 89 16 de 19 18 ac 12 a8 99 2a 02 28
       -0.06964 -0.05115 0.0015955 0.002865 -0.06396 -0.0318 0.05154 0.0313
000050 a6 23 db 25 da a9 a3 a9 aa 21 2c a0 12 9d 9a 2a
       0.01494 0.02287 -0.04572 -0.04404 0.01106 -0.00815 -0.00495 0.05157
000060 9f a7 e6 a2 cd 29 6a 20 d8 28 b6 22 68 a3 c7 9d
       -0.02977 -0.01347 0.04532 0.00862 0.03784 0.01311 -0.014465 -0.005642
000070 db a5 27 20 48 a9 d2 a9 8a a1 91 a9 6b a7 89 aa
       -0.02287 0.00811 -0.04126 -0.04547 -0.01082 -0.0435 -0.02898 -0.05106
000080 29 13 1e ad c0 a7 e7 ad 09 b0 06 ae 57 8e 84 ab
       0.000874 -0.07996 -0.03027 -0.0922 -0.1261 -0.0941 -0.000387 -0.05872
000090 60 24 b9 aa 09 ac be 9c 95 a5 6e a7 ca 27 6b 2c
       0.01709 -0.05252 -0.06305 -0.00463 -0.0218 -0.02902 0.03043 0.06903
0000a0 17 24 bc 29 a6 28 e1 a9 cc 9b 6b a6 ed a4 68 28
       0.01598 0.0448 0.03632 -0.04593 -0.003807 -0.02507 -0.01924 0.03442
0000b0 84 20 c7 a7 93 a6 95 ab b8 2b 95 18 b4 1f 48 2d
       0.00882 -0.03038 -0.02568 -0.05923 0.0603 0.002237 0.007523 0.0825
0000c0 13 a8 0a 2b e6 a9 51 28 ed 2c da a5 a3 a8 00 a8
       -0.03183 0.055 -0.04608 0.03372 0.07697 -0.02286 -0.03622 -0.03125
0000d0 86 a0 35 0e e5 a8 4d 28 ed a6 58 23 00 2e 7e 9f
       -0.008835 0.0003788 -0.03824 0.0336 -0.02705 0.01434 0.09375 -0.007317
0000e0 f4 a5 73 29 3b 28 72 28 22 27 81 21 8b 24 40 2b
       -0.02325 0.04257 0.03305 0.03473 0.02786 0.01075 0.01775 0.05664
0000f0 5e 2c c7 27 13 29 d7 2b 2b 28 4f 2a 97 a2 6d 24
       0.06824 0.03038 0.03964 0.06125 0.03256 0.0493 -0.01287 0.01729
000100 96 28 bf 1e b2 2a fe 2c 69 28 ee 2c 4f 2a d7 a3
       0.03583 0.006588 0.0523 0.078 0.03445 0.077 0.0493 -0.01531
000110 1c 2e 1c 2c 85 27 ba a7 d9 a7 ec 25 1c 26 52 22
       0.09546 0.0642 0.02937 -0.03018 -0.03065 0.02313 0.02386 0.012344
000120 f7 29 70 29 cc a8 25 a9 77 24 4a 99 9b a9 55 21
       0.0466 0.04248 -0.03748 -0.0402 0.01744 -0.002583 -0.0438 0.010414
000130 01 a7 02 2a 53 aa 0d 24 76 10 f4 20 bb 25 77 a2
       -0.02736 0.04694 -0.0494 0.01582 0.0005445 0.009674 0.02238 -0.01263
000140 c4 26 be 2b 7a a4 5b a5 0a 29 ea 28 c1 24 7c 99
       0.02643 0.0605 -0.01749 -0.02092 0.03937 0.0384 0.01857 -0.002678
000150 47 23 51 ab 38 24 2f 27 e3 26 4f a8 70 2c 97 aa
       0.01421 -0.05716 0.01648 0.02806 0.0269 -0.03366 0.06934 -0.05148
000160 70 1c 3f a7 34 2b 71 ab 8e a5 4d 1e 2e 27 81 2b
       0.004333 -0.0283 0.05627 -0.05814 -0.0217 0.006153 0.02805 0.05862
000170 d9 1e 06 ae d3 a8 f2 1d 50 22 a2 ad a9 22 8f a5
       0.006687 -0.0941 -0.0377 0.005806 0.01233 -0.088 0.01301 -0.02171
000180 78 23 6c a9 04 28 c5 a6 42 28 8b a8 e3 a9 61 a4
       0.01459 -0.04236 0.03137 -0.02644 0.03326 -0.0355 -0.046 -0.0171
000190 06 aa 5b 92 8a a5 12 b0 41 b0 62 b1 41 ad 5c 29
       -0.04706 -0.000776 -0.02164 -0.1272 -0.1329 -0.1682 -0.0821 0.04187
0001a0 a5 a5 93 28 27 ab 9c a5 d8 a1 7b 2b 69 27 5a a2
       -0.02205 0.03574 -0.05588 -0.02191 -0.01141 0.05844 0.02895 -0.012405
0001b0 75 1a 44 a9 d8 29 73 9c 90 a5 52 ac ec a9 cc ab
       0.003153 -0.04114 0.04565 -0.004345 -0.02173 -0.0675 -0.04626 -0.0609
0001c0 1c a8 f6 25 e0 ab 0b 2a 5d a9 91 aa ac 2c a0 2e
       -0.0321 0.02328 -0.06152 0.0472 -0.0419 -0.0513 0.073 0.1035
0001d0 c9 20 eb 2d 65 24 83 2c 0f 29 51 22 55 25 03 00
       0.009346 0.09247 0.01717 0.0705 0.03952 0.01234 0.02083 2e-07
0001e0 e3 14 1d 2b 8e 23 37 aa e2 9f ef a9 74 a0 f4 9b
       0.001193 0.05557 0.014755 -0.04855 -0.007698 -0.04636 -0.0087 -0.003883
0001f0 a4 26 b8 ae 02 b0 51 a6 7d ad 3a 28 5a 26 2f 2c
       0.02594 -0.105 -0.1252 -0.02467 -0.08575 0.03302 0.02481 0.06537

model/conv1d_2/Conv1D/ExpandDims_1:0 f2 [30, 30, 1, 20]
000000 bc ab 0c a9 42 27 4b 24 b9 8e fc a5 cf 29 c9 29
       -0.06042 -0.03943 0.02835 0.01677 -0.0004103 -0.02338 0.04538 0.0452
000010 1e ad 11 a0 78 1b 31 a9 91 ac 8d 24 69 29 ac 21
       -0.07996 -0.00794 0.003647 -0.04056 -0.07135 0.01778 0.04227 0.01108
000020 bc a7 14 28 d4 a9 97 a8 33 2c ae ab 47 9a 3a a7
       -0.03021 0.03186 -0.04553 -0.03586 0.0656 -0.06 -0.003065 -0.02823
000030 c0 aa c2 2a d3 27 b0 a7 fb 20 4f 26 4b 2b 1a a9
       -0.05273 0.0528 0.03056 -0.03003 0.00973 0.02464 0.05698 -0.03986
000040 36 29 dc 28 d3 aa 57 23 7c a9 f3 28 ab 9d 5f ac
       0.0407 0.03796 -0.0533 0.014336 -0.04285 0.03867 -0.005535 -0.0683
000050 6d 25 1c 2d 27 2d ce a7 ed a3 cc aa 1c 29 70 2a
       0.0212 0.07983 0.0805 -0.03049 -0.01548 -0.0531 0.03992 0.0503
000060 16 2b 95 a0 1e a6 79 9d b4 27 58 25 28 ac 73 29
       0.05536 -0.00895 -0.0239 -0.005344 0.03009 0.02087 -0.06494 0.04257
000070 c3 aa f7 ab ed 29 ba 24 96 9a 7b 29 2b 24 9d 12
       -0.05283 -0.06223 0.0463 0.01846 -0.003216 0.04282 0.01628 0.0008073
000080 c7 29 49 22 29 a5 2f a8 90 a4 e8 24 a2 a5 c9 1e
       0.04514 0.012276 -0.02016 -0.03268 -0.01782 0.01917 -0.022 0.006626
000090 db 2a d0 a6 ee 22 20 ac 65 29 dd 27 9e ab 34 2b
       0.05356 -0.02661 0.013535 -0.06445 0.04214 0.03072 -0.0595 0.05627
0000a0 92 ac bb ab 34 24 6c a8 23 28 66 9c ba aa a5 1e
       -0.0714 -0.0604 0.01642 -0.03455 0.03232 -0.004295 -0.05255 0.00649
0000b0 df 23 db ad 8a 9f f1 a7 10 ab 7e a3 b6 28 56 ac
       0.01537 -0.0915 -0.007362 -0.03102 -0.05518 -0.01463 0.0368 -0.06775
0000c0 99 29 e3 2b bf a7 e3 2d b9 9d c3 a8 00 24 63 a6
       0.04373 0.0616 -0.03026 0.092 -0.00559 -0.0372 0.01563 -0.02495
0000d0 47 2b 1e aa eb 9e 97 a4 9f 2b a3 a9 c2 9c 38 ac
       0.05685 -0.0478 -0.006756 -0.01793 0.05954 -0.04404 -0.004646 -0.0659
0000e0 5d 25 64 a9 ce a0 fc ac 73 ab 9c 19 60 a9 64 19
       0.02095 -0.0421 -0.009384 -0.0779 -0.0582 0.002739 -0.042 0.002632
0000f0 0b 2c ff a7 5e a8 4d 2c 05 ac 8e 2c 5d 28 51 ab
       0.0632 -0.03123 -0.03412 0.0672 -0.0628 0.07117 0.0341 -0.05716
000100 63 29 90 29 50 29 2c aa eb a2 0e 2b ba a5 24 1e
       0.04208 0.04346 0.0415 -0.04822 -0.01351 0.0551 -0.02237 0.005997
000110 0a 2b 66 28 e3 91 a1 29 b4 27 2e 2c eb 98 9d 2a
       0.055 0.03436 -0.0007186 0.04398 0.03009 0.0653 -0.002401 0.05167
000120 42 2a 0b 28 2b a6 05 a1 04 a9 bc a9 a9 aa 4c ac
       0.0489 0.0316 -0.0241 -0.0098 -0.03918 -0.0448 -0.05203 -0.06714
000130 7e 27 7e 29 c8 29 9f a0 34 24 5e ae ab ad 85 ac
       0.02927 0.0429 0.04517 -0.009026 0.01642 -0.0995 -0.08856 -0.0706
000140 55 2d d5 a0 bd 29 54 24 4f 9a 3f a8 a2 2a 25 29
       0.0833 -0.00944 0.04483 0.0169 -0.00308 -0.03317 0.05182 0.0402
000150 3b 24 f0 29 03 ab 92 2c 3b a8 ab 1f b1 2a 49 a6
       0.01653 0.0464 -0.05478 0.0714 -0.03305 0.00749 0.05228 -0.02455
000160 29 a7 e4 ac bf ae 00 a6 9e 2a fb 28 2d a9 a5 2b
       -0.02797 -0.0764 -0.1054 -0.02344 0.0517 0.0389 -0.04044 0.05972
000170 76 ab ad a0 49 1f 2d 27 49 24 00 2c da a8 a5 26
       -0.0583 -0.00913 0.007114 0.02803 0.01674 0.0625 -0.0379 0.02596
000180 b2 2b 0a 29 af 28 dc a8 c3 28 21 a9 0f a5 04 ae
       0.06012 0.03937 0.0366 -0.03796 0.0372 -0.04007 -0.01976 -0.094
000190 90 30 25 2a 53 29 e7 2f f7 2d bd 25 4b a6 12 2e
       0.1426 0.048 0.0416 0.1235 0.0932 0.02242 -0.02458 0.09485
0001a0 3a a9 c0 20 98 2b 39 94 ef ac 22 ac cf a2 f5 9e
       -0.04083 0.00928 0.05933 -0.001031 -0.0771 -0.0646 -0.0133 -0.006794
0001b0 f2 8c 8e af 55 b1 4b ac be 29 e3 2b ca 2c 83 28
       -0.0003018 -0.11804 -0.1666 -0.0671 0.04486 0.0616 0.0748 0.03525
0001c0 3f 25 c7 27 cc 1e 5d 2c 9f a8 99 a8 31 21 b4 2a
       0.0205 0.03038 0.006638 0.0682 -0.0361 -0.03592 0.01014 0.05237
0001d0 2c ab 27 24 3c 28 bb 29 6a ac 2c 0e e8 29 9f 26
       -0.05603 0.01622 0.03308 0.04477 -0.069 0.0003767 0.04614 0.02586
0001e0 77 2d 5e 25 18 2c 87 27 d3 28 ae 9d f8 28 9c a9
       0.0854 0.02097 0.06396 0.0294 0.0377 -0.005547 0.03882 -0.04382
0001f0 4a 2a d6 a1 02 a7 89 25 22 a8 23 a9 cc a7 a1 1e
       0.04913 -0.0114 -0.02737 0.02162 -0.0323 -0.04013 -0.03046 0.006474

model/conv1d_1/Conv1D/ExpandDims_1:0 f2 [30, 30, 1, 20]
000000 46 29 29 27 b2 2c 55 2d 0d 26 bd 2d ae 2b 29 29
       0.0412 0.02797 0.07336 0.0833 0.02364 0.08966 0.06 0.0403
000010 98 a4 67 a0 33 29 2a a4 37 a9 6e 29 f3 27 18 9a
       -0.01794 -0.0086 0.04062 -0.01627 -0.04074 0.04242 0.03105 -0.002975
000020 e9 9c 12 28 64 a9 1d aa fa ac 2b a4 02 ab aa a4
       -0.004795 0.0318 -0.0421 -0.04776 -0.07776 -0.01628 -0.05475 -0.01822
000030 a6 ab 97 14 11 ad d5 26 54 a1 45 ad f0 26 15 25
       -0.05975 0.001121 -0.07916 0.02669 -0.01041 -0.08234 0.0271 0.01985
000040 3a ac ca a5 d0 ac d1 a9 0b a4 46 ab 26 2a e8 27
       -0.06604 -0.02261 -0.0752 -0.04544 -0.0158 -0.05682 0.04803 0.03088
000050 10 b0 51 ad 7a 1c 78 1a f2 ac 62 20 20 a4 9f ad
       -0.127 -0.08307 0.00437 0.003159 -0.0773 0.00856 -0.01611 -0.0878
000060 b7 ab 5f ab 63 a4 9e a0 0c ab 63 a2 fa 27 31 a8
       -0.06027 -0.0576 -0.01714 -0.00902 -0.05505 -0.012474 0.03116 -0.03275
000070 24 ad 56 a0 06 24 e2 28 17 ad c4 2b ec 2b 07 ac
       -0.0803 -0.00847 0.01572 0.03815 -0.0795 0.06067 0.0619 -0.0629
000080 70 ab 09 a9 d0 aa 34 2c 74 a6 d6 21 89 99 0a 29
       -0.0581 -0.03934 -0.05322 0.0657 -0.0252 0.0114 -0.002703 0.03937
000090 94 a0 05 24 26 aa 64 2c ea 1b 5c 28 38 2a 36 27
       -0.00894 0.0157 -0.04803 0.0686 0.003864 0.03406 0.04858 0.02817
0000a0 8d 94 f2 2d 0f 21 56 2d dc 99 17 2d 5c 23 4c a5
       -0.001111 0.0929 0.00988 0.0834 -0.002861 0.0795 0.01437 -0.02069
0000b0 be 28 1d 2d 87 a5 83 2c 9c a4 fe 2c 38 1e 49 2c
       0.03705 0.0799 -0.02159 0.0705 -0.018 0.078 0.006073 0.06696
0000c0 0d a3 8e 2c 60 a5 c5 26 ae a9 5e 22 4b 26 70 2d
       -0.01377 0.07117 -0.021 0.02644 -0.04437 0.012436 0.02458 0.08496
0000d0 37 2c 48 2a b0 2c f3 1e da 25 1d 28 2c 26 34 26
       0.06586 0.04907 0.07324 0.006786 0.02286 0.03214 0.02411 0.02423
0000e0 1f 2c 46 a9 71 ac 4b 9c 2a 29 ff a4 eb 9c 96 aa
       0.0644 -0.0412 -0.0694 -0.004192 0.04034 -0.01952 -0.004803 -0.05145
0000f0 b1 ac 6a ad 9e 20 b3 15 16 27 86 a9 a1 aa c9 ac
       -0.0733 -0.0846 0.00902 0.001391 0.02768 -0.04315 -0.0518 -0.07477
000100 d0 9a 4a 2c fa 25 ce 2a 33 10 8c a7 1e 22 0f 29
       -0.003326 0.067 0.02335 0.05316 0.0005126 -0.02948 0.01195 0.03952
000110 d0 1f ae 25 d6 a5 bf 1d 82 ad 1e 29 8d 26 55 28
       0.00763 0.02219 -0.0228 0.00561 -0.08606 0.03998 0.02559 0.03384
000120 f4 29 ab a5 66 a3 93 ac 5f ad 8d ac 69 20 08 21
       0.0465 -0.02214 -0.01445 -0.0715 -0.0839 -0.0711 0.00861 0.00983
000130 a1 a4 0e af 8a ac 39 a9 8f ab 5f ad 27 aa a0 ae
       -0.01808 -0.1102 -0.0709 -0.0408 -0.05905 -0.0839 -0.04807 -0.1035
000140 b3 a9 d5 2c 25 24 6c 23 50 26 6f 26 29 2a 51 2b
       -0.04453 0.0755 0.01619 0.014496 0.02466 0.02513 0.04813 0.05716
000150 67 24 1b 2d 8d a4 15 21 c6 2c af 2b 3b 2c b3 a1
       0.0172 0.0798 -0.01778 0.009926 0.0746 0.06003 0.0661 -0.01113
000160 c9 a8 9d a8 3e a1 00 29 47 ab f3 ab e8 2a 81 2b
       -0.03738 -0.03604 -0.01024 0.03906 -0.05685 -0.0621 0.05396 0.05862
000170 69 28 2c 2c 76 29 09 a8 9f 24 a9 aa 02 2b 08 20
       0.03445 0.0652 0.04266 -0.03152 0.01805 -0.05203 0.05475 0.00787
000180 d8 28 53 aa f3 94 99 a5 5a ab 2d a7 1a aa 7f 1c
       0.03784 -0.0494 -0.001208 -0.02187 -0.05743 -0.02803 -0.04767 0.00439
000190 2c a6 f1 28 8a 24 60 29 b5 1a 99 a0 46 a0 6e 2b
       -0.02411 0.0386 0.01773 0.042 0.003275 -0.00898 -0.00835 0.05804
0001a0 d1 ab ff aa 4b 24 21 29 b6 a4 cd ac bd aa 9a a3
       -0.06107 -0.05466 0.01677 0.04007 -0.0184 -0.075 -0.05264 -0.01485
0001b0 9e ac ef 94 a5 ac ba ae c3 1d e2 25 cd ac 77 26
       -0.07214 -0.0012045 -0.0726 -0.1051 0.005627 0.02298 -0.075 0.02525
0001c0 5d a9 52 1a d5 a7 98 24 2c ab a7 28 57 2a 79 25
       -0.0419 0.003086 -0.0306 0.01794 -0.05603 0.03635 0.04953 0.02138
0001d0 05 a8 3c a4 00 9c c5 a0 bb ac ed 28 6c a9 d8 ab
       -0.0314 -0.01654 -0.003906 -0.009315 -0.0739 0.03848 -0.04236 -0.06128
0001e0 05 2a b7 a6 53 28 6d ac ad 2b 49 2c a9 a3 7f 27
       0.04703 -0.02623 0.03378 -0.06915 0.05997 0.06696 -0.01496 0.02928
0001f0 09 a8 ea 29 f0 a9 b6 21 4d 22 27 2d 58 a4 16 a6
       -0.03152 0.0462 -0.0464 0.011154 0.01231 0.0805 -0.01697 -0.02377

model/conv1d/Conv1D/ExpandDims_1:0 f2 [30, 8, 1, 20]
000000 e1 37 3b 38 a6 37 ea 38 c5 38 69 38 82 39 79 38
       0.4924 0.529 0.478 0.6143 0.596 0.5513 0.6885 0.559
000010 dd 38 d3 38 ff 38 33 38 6d 39 ef 38 e8 38 54 38
       0.608 0.603 0.6245 0.525 0.678 0.6167 0.6133 0.541
000020 3b 38 4a 38 53 38 35 38 a1 2e 97 32 ab 33 da 30
       0.529 0.536 0.5405 0.526 0.1036 0.2059 0.2396 0.1516
000030 d2 31 d9 2f 4e 2f b7 32 f5 33 66 34 16 34 f5 33
       0.1819 0.1226 0.11414 0.2098 0.2487 0.275 0.2554 0.2487
000040 1b 34 36 31 b5 33 e2 33 b7 30 df 2d e5 2f 16 2c
       0.2566 0.1628 0.2408 0.2463 0.1473 0.09174 0.12335 0.06384
000050 45 31 df 2e 37 33 b0 31 ae 31 01 30 48 32 15 32
       0.1647 0.10736 0.2255 0.1777 0.1775 0.1251 0.1963 0.1901
000060 50 32 ff 32 85 30 a7 2f 09 28 67 30 26 32 89 2d
       0.1973 0.2186 0.1412 0.11957 0.03152 0.1376 0.1921 0.0865
000070 9c 30 9b 2f 2e 2d 40 2f 11 a4 1e a8 f6 2c 51 9d
       0.144 0.11884 0.08093 0.1133 -0.01588 -0.03217 0.0775 -0.00519
000080 3c 2e a9 9e 2e 9d b0 aa 69 2d 4b 99 44 a4 3f 2d
       0.0974 -0.006504 -0.00506 -0.05225 0.08453 -0.002584 -0.01666 0.082
000090 ae a5 ee 28 58 2b b8 a6 64 2b 70 2b 6c 30 a7 2d
       -0.02219 0.0385 0.05737 -0.02625 0.05774 0.0581 0.1382 0.0883
0000a0 6c 27 48 2d 03 28 c9 21 f8 25 b6 1d 7a aa d2 24
       0.02899 0.0825 0.03134 0.0113 0.02332 0.005577 -0.0506 0.01883
0000b0 8f 1f 5a 25 05 26 ec a9 ea 26 7d ad 12 21 8a 28
       0.00738 0.0209 0.02351 -0.04626 0.02701 -0.08575 0.0099 0.03546
0000c0 17 a8 13 2b c8 29 63 28 3f 28 25 2c 1a a8 e0 ac
       -0.03195 0.05527 0.04517 0.03427 0.03317 0.06476 -0.03204 -0.0762
0000d0 c7 22 78 a4 e8 28 c5 a9 d7 a7 68 a7 da ab de ae
       0.01324 -0.01746 0.03833 -0.04507 -0.03062 -0.02893 -0.06134 -0.1073
0000e0 32 a7 5f 24 94 a9 7a 1f 2d 2d 13 ad 94 29 e4 2d
       -0.0281 0.01707 -0.04358 0.0073 0.0809 -0.0793 0.04358 0.09204
0000f0 f1 29 a0 a3 2d a3 e0 2a e0 a6 ee 28 a3 21 37 ac
       0.04642 -0.01489 -0.014015 0.0537 -0.02686 0.0385 0.01101 -0.06586
000100 15 2e 8a 9d 85 a8 e9 ac 2b a2 5e 2e 5c 2e 37 a9
       0.09503 -0.00541 -0.0353 -0.0767 -0.01205 0.0995 0.09937 -0.04074
000110 d4 2c 90 2b 8d ac ef a8 e5 2a 65 2d e4 aa 68 a9
       0.07544 0.05908 -0.0711 -0.03854 0.05386 0.0843 -0.05383 -0.04224
000120 32 1c 20 ae 8f 29 3b 28 96 ad 42 2c 21 25 c7 22
       0.004097 -0.0957 0.04343 0.03305 -0.0873 0.0665 0.02003 0.01324
000130 c2 a1 84 2d 61 a2 22 ab b7 a5 71 81 ce 21 7f 2d
       -0.011246 0.0862 -0.01246 -0.05573 -0.02232 -2.2e-05 0.01134 0.0859
000140 09 28 9a a7 5a a8 40 0f 51 a8 c0 a4 68 2e e9 2f
       0.03152 -0.0297 -0.034 0.0004425 -0.03372 -0.01855 0.1001 0.1236
000150 64 2f eb 2f ab 98 b4 27 17 ac 2e a7 5e ab c7 2a
       0.1155 0.1237 -0.00228 0.03009 -0.0639 -0.02805 -0.05756 0.05295
000160 55 2d 27 2a 5a 2a 30 22 97 ac fc a4 96 a8 34 ab
       0.0833 0.04807 0.04962 0.012085 -0.0717 -0.01947 -0.03583 -0.05627
000170 f8 2a e4 2c fe 2c 18 2d 8e 2c 8e 25 0b ac 8c 27
       0.05444 0.0764 0.078 0.0796 0.07117 0.0217 -0.0632 0.02948
000180 68 a8 01 a2 d4 2d d4 2a 8d a8 0b ac fb a5 39 28
       -0.03442 -0.01173 0.09106 0.05334 -0.03555 -0.0632 -0.02336 0.033
000190 4c 36 57 36 4c 37 94 36 0b 36 09 34 be 35 74 34
       0.3936 0.3962 0.456 0.4111 0.3777 0.2522 0.359 0.2783
0001a0 de 32 34 35 c3 34 17 35 aa 31 17 35 bd 35 1d 34
       0.2146 0.3252 0.2976 0.318 0.177 0.318 0.3586 0.257
0001b0 7e 34 27 35 60 34 90 35 23 99 a3 a9 d2 a2 a9 a6
       0.2808 0.322 0.2734 0.3477 -0.002508 -0.04404 -0.01332 -0.02602
0001c0 2e 27 e2 25 69 a5 dd 26 a8 ad 92 2c 1f 2c 87 a9
       0.02805 0.02298 -0.02113 0.02681 -0.0884 0.0714 0.0644 -0.04318
0001d0 fc aa fc 27 99 ab e1 25 fa a6 0b 2b 6c 9c b3 a4
       -0.05457 0.03119 -0.05936 0.02296 -0.02725 0.05502 -0.00432 -0.01836
0001e0 28 22 2a 26 14 2c a6 21 83 ac db 23 77 ab 99 2a
       0.012024 0.02408 0.0637 0.01103 -0.0705 0.01534 -0.05832 0.05154
0001f0 22 29 e6 29 e1 a9 2d 26 61 ac aa a9 23 8f c2 a9
       0.0401 0.04608 -0.04593 0.02412 -0.0684 -0.04425 -0.0004356 -0.04498

model/batch_normalization_2/batchnorm/mul:0 f4 [1, 30, 1]
000000 ef 27 42 3f e9 24 05 3f 64 20 43 3f a8 a0 71 3f
       0.75842184 0.52009445 0.762213 0.94385767
000010 88 87 2f 3f b4 b3 30 3f 34 8e fe 3e 5c e2 08 3f
       0.6856618 0.69024205 0.49717867 0.53470397
000020 65 01 36 3f c2 5e c7 3e c3 8c 37 3f bb 62 02 3f
       0.7109588 0.38939482 0.7169916 0.509319
000030 4c 7d 3f 3f 01 a2 e4 3e b9 4d 17 3f 2f 60 30 3f
       0.7480056 0.4465485 0.5910297 0.68896765
000040 bc a8 0a 3f 34 eb fc 3e 59 df f0 3e f0 4c 35 3f
       0.5416372 0.49398196 0.470454 0.7082052
000050 c6 64 4f 3f 25 88 e2 3e c3 c3 42 3f b7 c5 f2 3e
       0.81013143 0.44244495 0.7607996 0.4741647
000060 5d 65 3e 3f 27 df ea 3e c5 c6 28 3f 63 1e 01 3f
       0.7437342 0.45873377 0.659283 0.5043699
000070 60 b5 59 3f cc 64 4b 3f
       0.8504238 0.7945068

model/batch_normalization_1/batchnorm/mul:0 f4 [1, 30, 1]
000000 db 06 18 3f 82 99 80 3f a6 76 05 3f 92 dc 55 3f
       0.5938546 1.0046847 0.5213417 0.8353969
000010 47 a9 4d 3f a2 56 f4 3e 1d e9 1d 3f ac 08 bf 3e
       0.8033642 0.47722346 0.6168383 0.37311304
000020 de a3 8d 3f c7 07 82 3f 4c d1 7e 3f b0 69 3a 3f
       1.1065633 1.0158623 0.9953811 0.72817516
000030 58 17 5d 3f 33 61 18 3f de 92 b1 3f 8f c9 3f 3f
       0.86363745 0.59523314 1.3872945 0.7491693
000040 e6 2d 14 3f f7 65 f4 3e 3f b1 82 3e 45 82 0a 3f
       0.57882535 0.47734043 0.25525853 0.54105026
000050 84 44 51 3f ed c4 5a 3f c1 0a 17 3f 88 1f 07 3f
       0.8174517 0.85456735 0.59000784 0.5278249
000060 18 6f 18 3f 56 43 5a 3f ae b4 17 3f cc de 78 3f
       0.59544516 0.85258996 0.5926007 0.9721496
000070 f6 77 90 3f 62 5e c2 3e
       1.1286609 0.37962633

model/batch_normalization/batchnorm/mul:0 f4 [1, 30, 1]
000000 70 f0 9f 3d db 71 4f 3d 47 24 bc 3c e4 70 b2 3c
       0.07809532 0.05064569 0.022966517 0.021782346
000010 56 f5 8d 3c 27 04 e3 3c ae 53 a2 3c 06 50 b1 3c
       0.0173289 0.02771194 0.019815292 0.021644603
000020 d9 0f c3 3c 3b 46 05 3d 1e ad 38 3d a1 3f f7 3c
       0.023811268 0.03253768 0.045086972 0.030181708
000030 fc 98 78 3c 6a ed c0 3c f4 6f fb 3c 29 76 0c 3d
       0.015173193 0.023550708 0.030693032 0.034292374
000040 9a e9 79 3c ed 4d bd 3c e8 0e 41 3d 48 0c 99 3c
       0.015253449 0.023108447 0.047133356 0.018682614
000050 0b 60 41 3d ff ea 01 3d 18 3e 5d 3d e4 1e ae 3c
       0.047210734 0.03171825 0.054014295 0.021254964
000060 1f de a5 3c e0 e8 29 3d 78 15 32 3d 17 45 d9 3c
       0.020247517 0.041481853 0.043477505 0.026522202
000070 ca 84 d3 3c e2 8c ad 3c
       0.025820155 0.021185342

const_fold_opt__203 f2 [1, 30, 1]
000000 1e 30 60 26 d3 30 90 9c 47 aa c9 25 cb 29 f0 21
       0.1287 0.0249 0.1508 -0.004456 -0.04904 0.0226 0.04526 0.0116
000010 5f 26 12 2b c5 24 16 22 0d a5 44 aa 83 29 06 25
       0.02489 0.05524 0.01863 0.01189 -0.01973 -0.04895 0.04306 0.01962
000020 84 2a 1e 2d d4 23 93 2a e4 2c 19 a8 8b 31 cc 30
       0.0509 0.07996 0.01529 0.05136 0.0764 -0.032 0.1732 0.1499
000030 64 2f e6 30 6e 30 45 31 7d a8 60 2b
       0.1155 0.1531 0.1384 0.1647 -0.03506 0.05762

const_fold_opt__202 f2 [1, 30, 1]
000000 da a3 93 22 c9 ac b1 a7 40 ac 7a a8 74 19 ce a8
       -0.015335 0.01284 -0.07477 -0.03004 -0.0664 -0.03497 0.002663 -0.03754
000010 43 a2 3a ae 48 a5 14 a4 2a a8 05 a4 80 a7 08 a6
       -0.01223 -0.0973 -0.02063 -0.01593 -0.03253 -0.0157 -0.0293 -0.02356
000020 c5 a7 ab a6 1a a7 43 ae 32 ab 86 ae b5 a6 ba a5
       -0.03035 -0.02605 -0.02774 -0.09784 -0.0562 -0.1019 -0.0262 -0.02237
000030 95 a0 35 ac f0 a5 dd a8 63 15 d7 a6
       -0.00895 -0.06573 -0.0232 -0.038 0.001315 -0.02672

const_fold_opt__199 f2 [1, 30, 1]
000000 2c a6 b1 a6 71 9d e9 a8 79 ab 5a a1 1f a2 e4 9d
       -0.02411 -0.02614 -0.005314 -0.03836 -0.05838 -0.01045 -0.011955 -0.005753
000010 57 a4 cd a9 78 a4 92 a2 e0 a9 54 a6 17 a9 c5 ac
       -0.01695 -0.04532 -0.01746 -0.01283 -0.0459 -0.02472 -0.03976 -0.0745
000020 97 aa 38 24 a4 a5 95 26 4c 20 20 ac 85 a6 ca a4
       -0.05148 0.01648 -0.02203 0.02571 0.00839 -0.06445 -0.02547 -0.0187
000030 01 20 d3 0f 2d a3 f1 a4 fc a7 aa ac
       0.00782 0.0004776 -0.014015 -0.0193 -0.03119 -0.0729

const_fold_opt__193 f4 [1, 30, 1]
000000 5e 5b 27 bf 37 f0 0e bf 9a bb 2f bf 57 ce 21 bf
       -0.6537379 -0.5583529 -0.6864563 -0.63205475
000010 03 71 17 bf b4 f8 06 bf 34 67 f4 be 7f ed 03 bf
       -0.5915682 -0.5272324 -0.47734988 -0.51534265
000020 58 5b 3e bf 02 bf e5 be a4 b8 26 bf bf c9 12 bf
       -0.7435813 -0.4487229 -0.6512549 -0.5733909
000030 61 d5 4d bf 9a a2 fa be e2 51 0f bf 55 df 01 bf
       -0.80403715 -0.4895218 -0.5598432 -0.507314
000040 50 59 b5 be 65 8e 45 bf 8e 9d 2f bf c2 cb 32 bf
       -0.35419703 -0.771704 -0.68599784 -0.6984216
000050 23 8d 5e bf 81 ec ee be be 9a ca be 7b 1f 06 bf
       -0.8693411 -0.46664813 -0.39571184 -0.52391785
000060 38 7b 41 bf 6b 0a f2 be cb 10 e2 be 2c 60 1f bf
       -0.7557864 -0.47273573 -0.44153437 -0.6225612
000070 89 ef d1 be 31 f6 e7 be
       -0.41003063 -0.45305017

const_fold_opt__192 f4 [1, 30, 1]
000000 cc 44 11 bf 0c 24 3b bf 94 d5 e2 be b3 e2 32 bf
       -0.567456 -0.7310188 -0.44303572 -0.69877166
000010 8a af 23 bf 31 d1 fa be 4e 13 23 bf e7 b1 e1 be
       -0.63939726 -0.48987725 -0.6370133 -0.4408104
000020 ea 12 64 bf e2 f9 ea be ef 57 66 bf a6 b6 ea be
       -0.8909136 -0.4589377 -0.89977926 -0.45842475
000030 2e 61 6b bf 4b d5 f3 be d0 34 34 bf 4c f3 29 bf
       -0.9194516 -0.47623667 -0.70393085 -0.66386867
000040 37 82 bd be 53 25 03 bf 29 b0 00 bf c4 8e ff be
       -0.3701341 -0.5122883 -0.502688 -0.4991361
000050 92 ea 84 bf fe bc 57 bf 29 92 f3 be 2b 55 09 bf
       -1.0384085 -0.84272754 -0.4757245 -0.5364558
000060 71 ba 33 bf 9c 66 45 bf 80 9f dd be ce d5 63 bf
       -0.7020636 -0.77109694 -0.4328575 -0.88998115
000070 e3 e3 2d bf 9f 55 fb be
       -0.6792585 -0.4908876

const_fold_opt__191 f4 [1, 30, 1]
000000 a5 e8 21 bf 92 a7 b1 be 2a 0f fb be ce c8 0b bf
       -0.6324561 -0.34698159 -0.49035007 -0.5460328
000010 6c b5 01 bf 6e a3 4d bf a7 8f 06 bf 52 16 11 bf
       -0.5066745 -0.803275 -0.52562946 -0.56674683
000020 9b 96 03 bf b8 bc ee be fa d8 5f bf 06 9e fc be
       -0.5140168 -0.46628356 -0.87440455 -0.49339312
000030 be e6 d9 be 1f 64 23 bf 57 b3 fc be 04 51 fd be
       -0.42558855 -0.6382465 -0.49355575 -0.49475873
000040 a0 a6 ce be 48 5c eb be e6 09 07 bf 2a d3 ec be
       -0.403615 -0.45968843 -0.5274948 -0.46254855
000050 88 65 38 bf 06 69 23 bf 89 96 0b bf 49 28 16 bf
       -0.72029924 -0.6383213 -0.54526573 -0.5865522
000060 c0 c8 10 bf 7f 54 14 bf 07 87 3b bf f8 65 ea be
       -0.5655632 -0.5794143 -0.7325291 -0.4578092
000070 80 55 eb be ef 62 04 bf
       -0.4596367 -0.5171346

const_fold_opt__190 f2 [1, 30, 1]
000000 9b ab e3 a4 84 a6 3d 9e da a3 b1 18 30 a1 71 1d
       -0.05942 -0.01909 -0.02545 -0.006092 -0.015335 0.00229 -0.01013 0.005314
000010 b6 24 ac 1c 4a 22 bc 27 31 a5 50 91 32 ac 65 9e
       0.0184 0.004562 0.01228 0.03021 -0.02028 -0.0006485 -0.06555 -0.006245
000020 5c 1d 8d 1d b7 24 b5 9f 80 a8 0a a7 11 aa 28 aa
       0.005234 0.00542 0.01842 -0.007526 -0.03516 -0.0275 -0.0474 -0.0481
000030 5a 9a 1a 08 65 1d 1d aa d4 26 25 a0
       -0.003101 0.0001252 0.00527 -0.04776 0.02667 -0.008095
